output/compression_model.pth (torch, 233618 bytes, 12 tensors)

encoder.0.weight f4 [32, 3, 3, 3]
00000000: abf8 3f3d f452 35bd 4405 153e 5de3 073d
00000010: 8f81 b33c 7022 17be 8222 ea3c 56fd 63bd
00000020: 5a68 86bd e15f 7ebd 5ff7 333e c724 943d
00000030: e9f3 e63d 3d0a 2c3d 71f8 41bc 8a8d 45bd
00000040: e778 1cbd 06f3 6a3d 4b5c 38bd 11a3 3ebe
00000050: 7ae1 a1bd 2d67 133e a189 203e 5b82 ee3d
00000060: 6171 38be cf4d 35bd 1cf0 743d 9e6c b03d
00000070: 73df 35bd 3ddd 9b3a d518 e6bd a26b 12be
00000080: bb76 57bc 7cb2 f2bd 2504 073d 8d8f ccbd
00000090: 3a0b 78bc e6a6 a43d e2cd 15bd 1ac1 d43d
000000a0: afd2 dc3d ee15 aabd c7d5 e13d 1932 2fbd
000000b0: d18f 803d 6f1a dbbd ec4f 58bd 6de8 93bd
000000c0: 20b3 d3bd 1a9c 423e 8a86 23bc 8375 72bd
000000d0: 13be fbbd fda6 b53d ee4a 9f3d 9701 6bbe
000000e0: 1090 233d 126c f43d 6ee8 1ebd 3f94 0fbe
000000f0: 9c61 8fbd 99b8 87bc 65b2 97bd a09f c9bd
00000100: 1555 06be 5dce da3d 31ea 99bc 299f f2ba
00000110: 5b02 51be ce79 39be b0a9 17be d848 afbd
00000120: 0edd 053e d762 11be 5130 65be 8a76 bf3d
00000130: 2d2f 9ebd f98e 3abe 4e5e 28bc fbf1 60bd
00000140: 0a93 d83d 75f2 893d 6fef 8a3d 5c27 e73c
00000150: 6fec 56be 71ec 1c3d 0a2f b1bd a367 0dbe
00000160: cc83 013e e174 8a3d 1957 093e 2a4f 33bd
00000170: 6d4b c3bd 79ba 22be 8694 d93c 8de6 c6bd
00000180: 3b16 503d e834 cfbc 005b 973c a756 213e
00000190: 4235 cb3d 0268 ae3d cac2 ff3b 2e89 993d
000001a0: 564f cc3d 2b11 9e3d 8d57 45be 0f80 a63c
000001b0: 9e2e e7bc ddda 143e fbe9 33bd 3f18 843e
000001c0: 9121 2f3e 4148 48be d88a eb3c 25bf bcbd
000001d0: 1e62 36be d753 293d c29f 8b3d c4d0 843d
000001e0: d8e2 debd abac 4cbe 91df 66be 0185 0cbe
000001f0: 26fd 5e3c 6320 a63c 89e0 143d c436 373e
00000200: 1d11 00bd 10ce 5c3c 950f c73b ea70 cebd
00000210: bbc2 493e ff4f 88bc 4f6f 78bd b881 1e3e
00000220: 09cc c9bd fa5b 3bbe 4077 603d 145a 02be
00000230: a480 083d d28b 25be 4040 3a3e fafc f4bc
00000240: d271 26be d795 373e 7d91 163e 74e6 c0bd
00000250: 7259 1e3e f01c df3d 9b00 ffbd d065 15be
00000260: 2a09 f8bd 22eb edbb 9dc2 f03d 091b 543d
00000270: e48d 25be 3775 b83d a371 bc3d a962 f9bc
00000280: d369 04be 241f c23a dfc1 4f3e 7232 873d
00000290: ca96 6a3d 8f1e 593e 4db1 80bb 0f5d babd
000002a0: 83e9 333e ade4 013d ca5c 5e3b eb7c 3f3d
000002b0: bd9c f1bd 73f6 eb3d e03b 06be cde3 c3bd
000002c0: 36d5 cabd 6836 8cbd a5ca 2a3d 272a ba3b
000002d0: 42c7 55bd 6573 a0bc 06f9 293e 8f67 0abe
000002e0: 8d17 563e bf6e d73d f0b1 db3c bf3f 8cbc
000002f0: fd8b ca3d 5be3 313d 9669 633d 134e 4b3e
00000300: e5cf dd3d 3f83 dd3d 7f2e 9c3c ee7e 1ebe
00000310: 5c62 1bbe cc07 b8bd 395b b4bd eed6 2d3e
00000320: 1e4d 87bd 5016 2dbe 848f 3ebe fc4c 913d
00000330: 00c5 bd3d 5fa2 933c 61be cfbd 5362 fe3d
00000340: 641d bebd 2d4e 973d a42e 053e a9a6 b13d
00000350: 2b54 e2bd 6d63 d43c 86fa 60bd 9862 adbd
00000360: 8c0b e3bd ba91 debd e2f9 04be 69c0 803e
00000370: c0ef 43ba b8ab cb3d 2c2f aebb 9507 b43d
00000380: eb03 04be 6eed 333e bffe bc3d d48d 803d
00000390: 3244 283e 0fc5 24bd feae 5abe cd97 d2bc
000003a0: f23e f43c 31a6 073d fc24 febb 4c4a d13d
000003b0: 8330 8bbb f656 9dbd 106e 0cbc bcbd 10be
000003c0: 5053 393e 74b3 0f3e d143 aebd f825 acbc
000003d0: e35a 563e 8de1 b2bd 2b2d 2bbd 23d5 b43d
000003e0: 09d5 31be d081 e53d d976 593e 39d3 56bb
000003f0: bade 3bbe de77 a53d 4275 853d 8825 173e
0.046868008 -0.044268563 0.1455279 0.033175815 0.021912364 -0.1475923 0.028580908 -0.05566152
-0.06562872 -0.062103156 0.17574833 0.07233577 0.11276991 0.04200195 -0.011839018 -0.048230685
-0.03820124 0.05736067 -0.045009892 -0.18616892 -0.07904334 0.14394827 0.15677501 0.11645957
-0.18012 -0.044263657 0.0597993 0.08614467 -0.04440255 0.0011891496 -0.11235205 -0.14298871
-0.013150866 -0.118504494 0.032962937 -0.09988318 -0.015139395 0.08039646 -0.0365733 0.10388394
0.10782372 -0.08304964 0.11027103 -0.042772386 0.06277431 -0.10698401 -0.052810594 -0.07222066
-0.103369 0.1900486 -0.009980807 -0.0591941 -0.12292113 0.08869741 0.077779636 -0.22949825
0.03993231 0.11934675 -0.03879588 -0.14021395 -0.070010394 -0.016567515 -0.07407073 -0.09844899
-0.13118394 0.10683892 -0.018788429 -0.0018510568 -0.20411055 -0.18112871 -0.14810824 -0.08558816
0.13072607 -0.1419786 -0.22381712 0.093487814 -0.07723842 -0.18218602 -0.01027639 -0.05491827
0.105749205 0.06735698 0.067839496 0.02821701 -0.2098863 0.038311426 -0.0865155 -0.13809066
0.12647933 0.06760574 0.13412131 -0.04377667 -0.09535871 -0.15891446 0.02656008 -0.09711943
0.05080245 -0.025293782 0.01847601 0.15755711 0.099222675 0.08515932 0.007805203 0.07496868
0.0997607 0.07718118 -0.19271679 0.020324735 -0.028220471 0.14536615 -0.043924313 0.25799748
0.17102648 -0.19558813 0.02875273 -0.092161454 -0.17810866 0.04133972 0.06817581 0.064851314
-0.10883111 -0.19987743 -0.22546221 -0.13722612 0.01361016 0.020279115 0.036346946 0.17891985
-0.03126632 0.0134768635 0.0060748556 -0.100801304 0.1970319 -0.016639708 -0.060653027 0.15479171
-0.0985337 -0.18296805 0.054801226 -0.12729675 0.033325806 -0.16166618 0.18188572 -0.029905785
-0.16254357 0.17928253 0.14703937 -0.094189554 0.15463808 0.10894191 -0.12451287 -0.1458962
-0.12111123 -0.007260696 0.117558695 0.051783595 -0.16167408 0.09006732 0.09201362 -0.030442553
-0.12930994 0.0014810306 0.202888 0.066014186 0.05727271 0.21203063 -0.003927386 -0.09099781
0.17569546 0.031712223 0.0033929818 0.04674999 -0.117974736 0.11521616 -0.13108778 -0.09564934
-0.09903948 -0.06846315 0.041697163 0.0056812945 -0.05219198 -0.019586274 0.16598901 -0.13516067
0.20907421 0.1051917 0.026818246 -0.01712024 0.09889982 0.043429714 0.055520616 0.19854002
0.10830668 0.10816049 0.01906514 -0.15478107 -0.1517424 -0.08985862 -0.08806462 0.1697652
-0.06606506 -0.16903043 -0.18609434 0.07094762 0.092660904 0.01802176 -0.10143734 0.124210976
-0.092829496 0.07387958 0.13006073 0.08674366 -0.1105121 0.025926316 -0.054926418 -0.08466071
-0.11086187 -0.10867639 -0.12985948 0.25146797 -0.0007474385 0.09944862 -0.005315682 0.08790509
-0.1289212 0.17571041 0.092282765 0.062770516 0.16432264 -0.040226992 -0.21355817 -0.02570715
0.02981517 0.033117477 -0.0077558737 0.10219249 -0.0042477264 -0.07682602 -0.008571163 -0.14134878
0.18098187 0.140333 -0.08509029 -0.021014199 0.20933108 -0.08734427 -0.041791122 0.08829715
-0.17366423 0.112064004 0.21236743 -0.0032779707 -0.18346682 0.080795035 0.06516506 0.14760411

encoder.0.bias f4 [32]
00000000: 0b22 afbd 33ac bb3d 77e1 edbd c07a 653d
00000010: 5b3c 753d 304f 583e 1df8 62be 6e6b f13d
00000020: 888e 44be 38a9 453d 7db7 d3bd c8b4 3ebd
00000030: 965f c03d 64ce 753e 782e 433d a1f6 09bc
00000040: 03d8 43be e6c7 76bd b173 d2bd c5d0 603c
00000050: 3b11 7f3d 4275 bf3d c0d5 433d 8a79 74be
00000060: 34fb 9bbd f384 483e a608 013e 02c2 033e
00000070: 36a0 ffbd 221a c53d e907 d43d 8e30 8d3d
-0.08551415 0.09163704 -0.1161527 0.056025267 0.059872013 0.21123958 -0.2216496 0.11788069
-0.19194996 0.048257083 -0.10337732 -0.046559125 0.093932316 0.24004513 0.047651738 -0.008420617
-0.1912537 -0.06024923 -0.10275973 0.01372165 0.06227229 0.09348537 0.04781127 -0.23874488
-0.076162726 0.19581966 0.12600955 0.12866977 -0.1248173 0.09624125 0.10353071 0.06894027

encoder.2.weight f4 [64, 32, 3, 3]
00000000: c3aa 803c 095b 1ebd b8cc 8d3d 41db 5abd
00000010: 66cd 17bd 1e3d 0f3d 0af1 3f3d 28a2 7bbc
00000020: 732b 143d 3941 043e 1443 0b3d fcbe 453d
00000030: 2bd2 013e 4d02 a23d 257a 903d 4bac ac3d
00000040: dacd 3c3d 1c04 e83c c2e6 133d a304 093d
00000050: a48b 75bc 405e 603c 1b93 883c 8cf6 173c
00000060: 2f69 97bc df2f 003d 8ed4 5fbd 61b8 1fbd
00000070: 9831 203c 1101 84bd c1db 32bd 46cf babc
00000080: a202 d2bc 0de9 50bd bb61 83bc 3c56 0bbd
00000090: 639b a23d 8cde db38 6f35 adbd 6942 593d
000000a0: e746 8b3c 929a 51bd f54e 0a3d 6696 9b3d
000000b0: 304b cfbb 5574 213d 0aae 9a3d 05a1 693d
000000c0: 06a6 85bb b08b 493d be30 4a3c 2432 38bd
000000d0: 89ef 173d bfb5 1fbd 1217 853e 8a1b c1bc
000000e0: 4305 9d3d 29a7 333e ccd8 31bd 9b05 0a3e
000000f0: 9545 1a3e eec5 a2bb 5daf b33d ac54 bfbc
00000100: d03d 76bd 8fd1 723d 160a 193c 788b b5bc
00000110: dd68 79bc ec6f 22bc 5cd5 1abd 6e8a 223c
00000120: 1c24 c93e ddc4 6a3d 7e01 ef3c 9921 b73e
00000130: 8028 1e3e c118 a23c e2ce 9b3e 0c56 873e
00000140: a7ed e23d 8a02 85bd ced4 45bd d383 06bd
00000150: 691e bdbd 415e 5ebd cd20 abbd 7565 813d
00000160: 3d82 9a3d 14fd 343b 8cba b7bd e98e c93c
00000170: d2e8 01bd 7845 6ebd a004 a2bd c613 0b3d
00000180: e4ff f4bb 2f46 a0bc 3d61 5f3c 7448 133d
00000190: c6bb 72bc 9f11 63ba 5122 e1bc 0090 80bc
000001a0: 768e af3d d306 793d dc09 993d 38d7 953d
000001b0: f1ee a7bd 75de 3b3c 6dbe 37bd eda6 0ebd
000001c0: 1ef1 88bd d64f 50bd becd fb39 dc16 56bd
000001d0: c5f4 88bc b3fb 883c 6ad2 d33c 1bdd babb
000001e0: 2263 b93d 82fc b33d 7b8b 9e3c 166f 863d
000001f0: 1374 e03d 2d42 8b3d 0640 713d f1b2 593d
00000200: 561e b53d 2396 6e3d 52c3 0c3d cfec 613d
00000210: b191 443d 852c 353d 4e14 6e3c 7f33 30bd
00000220: eaf4 71bc b253 9bbc 5cff 6dbd 32f8 0b3d
00000230: b89b 77bd 22bf 9b3c 0654 773d 4241 59bd
00000240: a2c1 d73d 9415 99bd e578 cf3d 535e 033e
00000250: 2e81 57bd 4fc8 b43d 7343 3c3e bdcc a53c
00000260: 3baf 233c 300b 163d 42c3 743d 85d5 423d
00000270: 4ad5 47bd b016 ae3c a648 8cbd a74e 30bc
00000280: a100 45bb 7e66 1f3d f4dc e1ba 9171 26be
00000290: dffb 9cbd 0c72 b9bd 5df3 27be 6857 04be
000002a0: 5219 90bd 27ae 07be a640 d4bd 1a2a 8ebc
000002b0: 8850 86bd 59ed 7dbc 529b cbbd ad2d e8bd
000002c0: 3355 303b 55a2 513c f531 ae3c dd60 323a
000002d0: 748e 03bd 4368 72bd bb0c 1f3d fb76 45bd
000002e0: 2f7d d4bc 07e3 7a3d fbe9 89bc d51f 85bd
000002f0: 9a4d 10bc f231 233c 7cff 02ba 15a5 633d
00000300: f7fd 12bd 1327 92bc 3108 553d d1ba 763d
00000310: 3043 fe3b a817 663d 5802 103c 8baf c13a
00000320: de72 4e3d e60c 903a 77dd 82bd ad13 093d
00000330: 1124 acbb b9f8 8fbc ab92 833d 1be9 21bd
00000340: c2de 5cbc c1be d13c 7342 9abc f7fe 80bc
00000350: 51b3 393d fc25 b33d fa95 a33b c8dc 603d
00000360: 4fe5 adbd 383e b0bd 8d94 1fbd d4cb cdbd
00000370: 7a36 86bd 029d 4ebc 30a2 63bc b074 aebd
00000380: 4ae9 63bd 4145 253d 61ba 0c3d 84b8 923d
00000390: 6402 023d 1c36 743d e088 9e3d 2225 b43d
000003a0: a85e c93c 3874 c53c 1ce0 7d3d 4819 693d
000003b0: 35b2 883d 1856 2d3c cd86 4ebd 27f9 34bd
000003c0: 9683 d53d 1b0b 6c3b f8db 0e3d 4c22 413e
000003d0: ac22 573e d124 d23d 6858 e83d a5ba d33d
000003e0: 5c81 bc3d d52e cd3c 4374 a23d b3b6 bd3c
000003f0: 4589 63bd 1867 7bbc bdf2 32bd 3242 dcbc
0.015706426 -0.038661037 0.06923813 -0.053431753 -0.037061118 0.034970395 0.046860732 -0.015358485
0.03617425 0.12915505 0.033999518 0.04827784 0.12677829 0.07910595 0.07054547 0.084313
0.046094753 0.028322272 0.03610874 0.033451688 -0.014986906 0.013694346 0.016671708 0.00927509
-0.018482773 0.031295653 -0.054646067 -0.038994197 0.009777449 -0.06445516 -0.043666605 -0.022803914
-0.025636021 -0.051003505 -0.016037812 -0.034017786 0.07939794 0.00010484186 -0.08457457 0.05304185
0.017001582 -0.0511728 0.033766706 0.075970456 -0.0063261017 0.039417583 0.075527266 0.057038326
-0.0040786294 0.049205482 0.012340723 -0.044969693 0.037093673 -0.038991686 0.25994164 -0.023572702
0.07667019 0.17544235 -0.043419644 0.13478701 0.15065606 -0.0049674427 0.08773682 -0.023355804
-0.060117543 0.059281882 0.009340784 -0.02216123 -0.015222755 -0.00991438 -0.03780113 0.0099206995
0.39285362 0.05731665 0.029175516 0.3576782 0.15445137 0.019787194 0.30431277 0.26432836
0.11080485 -0.06494625 -0.04829865 -0.03284056 -0.09234316 -0.054289106 -0.08355866 0.063181795
0.07544372 0.0027616667 -0.08971128 0.024604278 -0.031716175 -0.05817172 -0.079110384 0.033954404
-0.0074767936 -0.019564716 0.013634023 0.03595777 -0.0148152765 -0.00086619885 -0.027482184 -0.015693665
0.08572094 0.060797524 0.07472584 0.0731644 -0.08199871 0.011466612 -0.04485934 -0.03482716
-0.066866145 -0.050857387 0.0004802774 -0.052267894 -0.016718278 0.016721582 0.02585717 -0.0057026274
0.09052111 0.087883964 0.019353619 0.06564157 0.109596394 0.067997314 0.058898948 0.053149167
0.08843677 0.05824865 0.03436596 0.05515748 0.047990505 0.04423191 0.014531208 -0.04301786
-0.014767865 -0.018960807 -0.058104858 0.034172244 -0.06045124 0.019012038 0.060382865 -0.05304075
0.105349794 -0.07474819 0.10130481 0.1282895 -0.05261343 0.08827268 0.18385105 0.020239228
0.009990509 0.036631763 0.059756525 0.04756691 -0.048787393 0.021251053 -0.06849794 -0.01076094
-0.003006019 0.038916104 -0.0017231987 -0.1625426 -0.07665228 -0.09054956 -0.1640143 -0.12923968
-0.070360795 -0.13250028 -0.10363893 -0.01735406 -0.06558329 -0.015498483 -0.099417344 -0.11336837
0.0026906251 0.012795051 0.021264056 0.0006804595 -0.032118276 -0.059181463 0.0388305 -0.04820917
-0.025938598 0.061251666 -0.016835203 -0.06500212 -0.008807564 0.009960638 -0.00049971766 0.055577356
-0.03588673 -0.017840898 0.052009765 0.060236756 0.007759474 0.056174904 0.008789621 0.0014777047
0.050402515 0.0010990172 -0.06389897 0.03346603 -0.005253323 -0.017574655 0.06424459 -0.039528947
-0.013480844 0.025603654 -0.018830514 -0.015746577 0.045337025 0.08747479 0.004992244 0.054898053
-0.08491003 -0.08605617 -0.03896003 -0.10048643 -0.06553359 -0.012610676 -0.013893649 -0.0851835
-0.055642404 0.04034925 0.034357432 0.071641 0.03174056 0.059621915 0.077409506 0.08796145
0.024581268 0.024103269 0.061981305 0.056908876 0.06674615 0.010579608 -0.050421525 -0.044182923
0.10425489 0.0036017362 0.034877747 0.1886074 0.2100932 0.102609284 0.11344987 0.10338334
0.09204361 0.025046745 0.079323314 0.023158407 -0.055550832 -0.015344404 -0.043688525 -0.026887033

encoder.2.bias f4 [64]
00000000: 4555 acbc be13 65bd 7262 1a3d 4670 54bd
00000010: 20e3 48bc 577a e8bc 7d45 493b 0856 b5bc
00000020: 9b96 433c 1fd9 493d af4c 083d 7aca 2ebd
00000030: 3933 59bd 1eb2 59bd 6970 efbd c071 003c
00000040: 3dc2 4a3b 4fc6 09bd 2806 aa3d a837 193d
00000050: 4ab7 16bd 2d4e 8b3d 1927 3d3d de78 aebc
00000060: 517a 78bd fdc8 a7bd abb5 0bbd 6119 2ebd
00000070: 1f75 dfbc e40d 973c 2fca 0cbd 1209 dfbc
00000080: f827 94bd dcf4 7a3d 3722 9d3d 1820 8abc
00000090: 94e4 953b 263d 7a3d f42e 0f3a 1033 dc3c
000000a0: 668f 243c f91c 853d a031 b53c 94e5 9c3d
000000b0: 5beb 03bd ce50 d83c 85ed 2ebc 576e f6bb
000000c0: 2691 ecbb d314 cb3d b7eb 60bc 0cab 31bd
000000d0: f9a9 9bbd fca5 013d 0fe8 12bd ef8e 8a3d
000000e0: 4ebd 003d 3eb5 743a 6dc4 a53d daea 463c
000000f0: 531f 5ebd a344 753c 3533 35bd a466 33bd
-0.021036753 -0.05592703 0.03769154 -0.051864885 -0.012261182 -0.028378649 0.0030711584 -0.02213575
0.011937763 0.04927933 0.033276256 -0.042673565 -0.053027365 -0.05314838 -0.116913624 0.00783962
0.003093853 -0.033636387 0.083019555 0.037406594 -0.03679589 0.0680202 0.046179865 -0.021297868
-0.060663525 -0.08192632 -0.0341088 -0.042504672 -0.027277527 0.01843924 -0.034372505 -0.027226005
-0.07234186 0.061268672 0.076725416 -0.016861007 0.004574368 0.061093472 0.00054620137 0.026879817
0.0100439545 0.06499667 0.02211839 0.07660976 -0.032206874 0.026405718 -0.010676746 -0.0075204778
-0.0072194515 0.09916081 -0.013728074 -0.043376014 -0.07600779 0.031652436 -0.03586584 0.06765544
0.031430535 0.00093348685 0.08094106 0.012140954 -0.05422909 0.014969978 -0.044238288 -0.043799058

encoder.4.weight f4 [16, 64, 3, 3]
00000000: 7ed4 d53c 96f8 9cbc 02aa 1bbb 7156 c23b
00000010: 4361 9b3c 5702 8c3c 5540 013d 6e20 983b
00000020: e24c 1e3d b434 223c 8b2b 15bd 40c2 f83b
00000030: 419e ecbc 5307 d4bc 7060 163c 80f9 3e3b
00000040: a858 d4bc 12f7 d03c 9633 e43c 1d5f 8e3c
00000050: 0563 1ebb 6b5f 89bc fda1 623c 2963 46bc
00000060: 1913 d8bc de72 4a3b 3153 9dbb b1bd 803c
00000070: 9c77 a1bc 45ee b73c 68c0 533c 2c42 42bd
00000080: 6232 b53c 8cbd b7bc d27d 183d 6791 f8bb
00000090: 96de 0abd 899f a33c 8046 7c3d 9b67 613c
000000a0: 04f7 3ebd 8ab3 ef3c bc45 55bd ce10 f63c
000000b0: 78df aa3b eab9 f1bc 66c1 8b3b c3f6 28bd
000000c0: d162 013d 7563 4739 53b0 12bd 1bd1 34bd
000000d0: 00ec bbbc c26f c23c 9351 bfbc 903a d5bc
000000e0: 346a 0dbd 6e35 2cba 17e0 73ba 8515 63bc
000000f0: 7786 48bc eb09 5cbc 93fc 00bd 0355 04bd
00000100: 5368 84bc c280 04bd 53e5 2abd 9457 19bd
00000110: 6591 8d3c 7c04 b6bc a5ae 35bc 6cad ae3c
00000120: c9a7 31ba 6f01 a1ba 9339 cc3c 8070 5639
00000130: b392 7abb ac14 a03b 2358 84bc d019 58bc
00000140: 5c0a bdb9 4855 b83c f502 d33c e665 083d
00000150: a613 b7bc 9bf8 493c 6a25 8f3b cc28 6c3c
00000160: 64c8 023d 909d 8c3c a307 e4bc dd1f c73c
00000170: 0ddd 933d a2d2 fbbc d224 043d c2b2 a9bc
00000180: 0f54 683c 0ec4 09bc b185 f1bc 6732 9a3d
00000190: 04f1 1bbd b30f 913c fe15 0a3d c878 5dbd
000001a0: ee07 00bd a558 b6bd 7237 023d d7a1 293c
000001b0: 0821 5d3c e22a 9f3c c66c 663c a167 093d
000001c0: 3ec4 96bc 4364 733b 19f7 6fbc b325 1abb
000001d0: f18e 173d b8d6 133d 8aa1 0f3d dfb7 4c3c
000001e0: 6ea7 863c 71be b13c 2438 01bb 8783 f4bc
000001f0: 627b bfbc d698 e6bc ecab 26bc c477 f7bc
00000200: 7a60 b0bc 3ddb ad3c 8b6a d43b b5ac 9a3c
00000210: e487 e1bb 0bdf 94bc 045f fdbc 9f3d ce3c
00000220: d283 56bc 42ad 223c aa31 b73c e9d3 7fbc
00000230: ce8b de3c 27ca 8bbb eb4c 9c3c 2620 fbbc
00000240: 416a 64bc d60d 033d d4c1 37bb faec 30bc
00000250: aa24 0fbd 94a6 283c 4d5b f4bc 3d60 98bb
00000260: 7162 a03c 0efd f43c 963f 07bd 9b61 01bd
00000270: a0a8 99bc 53cd ed3c 32a8 323c 031d ce3c
00000280: e43b 42bc e7f9 f2bb 6411 50bd 9a16 7f3b
00000290: 6d68 abbc 704f 353d 7d28 06ba 0759 5f3d
000002a0: b43b b2bc 9573 e0bc 07f9 8d3b fd92 0d3c
000002b0: 59c0 f0bc 01e2 2c3d f244 9fbc a02f 11bd
000002c0: 20ce 17bd ff43 293d 88ec 763c c8ba 8d3c
000002d0: bab5 9abc 1d6f 98bc fb52 383b 2f98 b2bb
000002e0: 5efd 00bd 7104 af3c 8976 ffbb d0cd 143d
000002f0: fb90 4ebc c5b5 48bc 96a7 723d f3bc 48bc
00000300: b4e5 343c 41e4 57bd 2c10 1a3c 23c6 333c
00000310: 1411 783c 8990 9a3c 48c2 51bc fdb8 123d
00000320: cc3e 69bc c3bc e83c 85d4 86bd b171 82bb
00000330: 0410 083c c34b 3c3d 3b73 f73a a497 76bd
00000340: 286a 2b3d a3ae bc3b 5077 273d b5a3 e93c
00000350: e80b c4bc 5506 f6bc b350 e53c faea 4e3c
00000360: ea68 91bc 47bb e6ba ccdc cebc 5a52 45bc
00000370: 7799 063c e76c a5bc 7517 cbbc 6eaf 163b
00000380: b965 c0bc 1168 8e3c cf79 5bbd 92b2 353c
00000390: f070 c4bc 59ec fc3c b07d 04bd 7dde 993d
000003a0: 6591 1f3d 147b 643c 6ee0 cb3c bfd0 88bc
000003b0: 36a6 a93c 8a78 a0bc 686d dc3b 9635 ea3c
000003c0: f365 a8bc d3cb 4abb 34cb 0abc 7f58 743c
000003d0: 624a bfbb aa05 d7bc daf6 24bd 4d72 b23a
000003e0: dccb 373d 6a09 b7bc 958e d1bc 5b76 0e3d
000003f0: 208c e83a b833 f7bc 132e a2bc 60df c53c
0.0261023 -0.019161504 -0.0023752456 0.005930715 0.018967276 0.01709096 0.031555492 0.004642538
0.03864754 0.009900261 -0.03641848 0.007591516 -0.028884055 -0.025882399 0.009178266 0.0029140413
-0.02592118 0.025508437 0.02785663 0.017379338 -0.0024167907 -0.016769132 0.013832566 -0.012108603
-0.026376294 0.003089122 -0.004801177 0.015715452 -0.019710355 0.022452483 0.012924291 -0.047426388
0.022118751 -0.02242925 0.037229367 -0.0075856927 -0.03390368 0.019973533 0.06159067 0.013757612
-0.04662229 0.029260416 -0.052068457 0.03003731 0.005214628 -0.029507596 0.0042649982 -0.041250955
0.03158838 0.0001901517 -0.035812687 -0.04414473 -0.022939682 0.02373493 -0.023354327 -0.026028901
-0.03452511 -0.0006569241 -0.00093031063 -0.013860111 -0.01223909 -0.013430099 -0.031490874 -0.032307636
-0.016163027 -0.032349356 -0.041722607 -0.037437037 0.017281244 -0.022218935 -0.011089002 0.021322928
-0.0006777016 -0.0012283752 0.024929797 0.0002045054 -0.0038234412 0.004885277 -0.016155308 -0.013189748
-0.00036056607 0.022501603 0.025758246 0.033300303 -0.022348236 0.012327339 0.004368474 0.014414024
0.03192939 0.017164975 -0.027835673 0.024307186 0.072198965 -0.030740086 0.032261677 -0.020715121
0.014180197 -0.0084085595 -0.029482694 0.07529145 -0.038071647 0.017707681 0.03371238 -0.054070264
-0.031257562 -0.08903626 0.031791158 0.010353527 0.013496645 0.019429628 0.01406402 0.033546094
-0.018404122 0.0037138618 -0.014646315 -0.0023521006 0.037001554 0.036093444 0.035066165 0.01249501
0.016437259 0.021697255 -0.00197173 -0.029847873 -0.023374263 -0.02814905 -0.010172825 -0.030208476
-0.021530379 0.021222705 0.0064824275 0.018881181 -0.0068826545 -0.018172761 -0.030929096 0.025175868
-0.013092952 0.009929003 0.022362549 -0.015614488 0.027166273 -0.004266042 0.019079646 -0.030654978
-0.0139413485 0.031995617 -0.0028039115 -0.010798687 -0.034947075 0.010293622 -0.029828692 -0.0046501444
0.01957819 0.029905822 -0.033019625 -0.031587224 -0.018757164 0.02902857 0.010904359 0.025160318
-0.011855099 -0.0074150446 -0.050797835 0.0038923384 -0.020923818 0.04426521 -0.00051177276 0.054528262
-0.021756984 -0.027398864 0.004332665 0.008641002 -0.029388594 0.04220772 -0.019442055 -0.03544581
-0.03706181 0.04132461 0.015071042 0.017300978 -0.018885482 -0.01860767 0.0028125632 -0.0054502706
-0.03149163 0.021364423 -0.007796113 0.03632909 -0.012607808 -0.0122503685 0.059241854 -0.01225208
0.011041094 -0.052707914 0.00940327 0.010972532 0.0151407905 0.018867748 -0.012802668 0.03582095
-0.014236163 0.028410321 -0.06583504 -0.003980838 0.0083046 0.04597069 0.0018878946 -0.06020321
0.041849285 0.005758123 0.04088527 0.028520444 -0.023931459 -0.030032316 0.027992582 0.012629265
-0.017750222 -0.001760342 -0.025251769 -0.01204356 0.0082153 -0.02019353 -0.024791459 0.0022992748
-0.023486005 0.017383607 -0.053582963 0.011089938 -0.023979634 0.030874418 -0.032346427 0.075131394
0.03895702 0.01394536 0.02488729 -0.0167011 0.020709138 -0.019588728 0.0067269094 0.028590005
-0.020556426 -0.0030944243 -0.008471299 0.014913677 -0.0058377245 -0.026247818 -0.04027448 0.0013614387
0.04487215 -0.022343356 -0.025580684 0.03478084 0.0017741956 -0.030176029 -0.01979736 0.024154365

encoder.4.bias f4 [16]
00000000: ae11 2f3d 8c8a 45bc 7e22 37bc 6119 583d
00000010: 4c12 113d a670 183d edeb 0f3d 91bf 1fbd
00000020: b03f 8fbc 15cf 04bd 64dc c83d 28b0 553d
00000030: b44b 533d b9db 8dbd ea74 14bd d819 a2bc
0.04274147 -0.012056958 -0.011177657 0.05275858 0.03541784 0.037216805 0.035137106 -0.03900105
-0.017486423 -0.03242405 0.09807661 0.05216995 0.051585868 -0.069266744 -0.03624431 -0.019787714

decoder.0.weight f4 [16, 64, 3, 3]
00000000: cb08 4e3d 3acd 32bd 7a89 cd3b 9665 ed3c
00000010: e8b4 6fbc 031c 80bb bbba 40bd 2d91 c23c
00000020: 2f78 bebc 1361 55bd 3e53 473d 2a24 2839
00000030: 82e3 53bd 64b1 af3d 148b 06bd 7e0d 2cbb
00000040: 9ebb 673b a94c 3e3b 0612 8fbd 926c 0b3d
00000050: 1e72 1bbd 7277 8d3d d0a3 91bc 868a ed3c
00000060: 867b a43c d399 ec3c 89e0 7c3c cb36 143d
00000070: 382b ed3c 701e 503d f4c8 323d 0b80 f93c
00000080: 899c 913d e3d4 3f3d 4a80 1e3d 034b 973d
00000090: 891b 59bc c0cc fc3c 34a3 da3c c966 a13c
000000a0: f433 203c 0db0 583d ae8c 683c 5e99 c23c
000000b0: 9aa3 e53c 9cde 8abd f862 24bd 9aa0 30bc
000000c0: 55f1 a5bc 9d41 e0ba 9b38 1a3c dd26 c63c
000000d0: 0c21 fcbb f4b0 2ebc a641 bd3c 7500 0bbd
000000e0: b5b2 1f3d 8927 90bb 923b c0bc 46d8 d9b9
000000f0: d3db cbbc b1ee a13b 2d5a 94bc ba92 c5bb
00000100: fdb6 803a 0215 e93b b33b 00bd 12a1 0abd
00000110: c372 9dbc 17a6 923c fc66 32bc 12fa 6cb9
00000120: 1912 92bd a582 4b3d 200c 29bd 2a3d ebbb
00000130: 0374 bfbd 3ee4 99bb 5db6 103d f3bb e83c
00000140: 637d 27bd b6dc 2ebd 4ef6 c13b 5b21 d1bc
00000150: 4525 54bc c6ac a8bc 517d 623c 9559 7e3b
00000160: 525b d9bc a061 0e3d 66b4 3fbb f315 36bd
00000170: f465 9abc c67e 6c3c 054f 85bc c9ed eebc
00000180: 50ab 5838 e2aa 503b 58e3 75bc 1075 34bc
00000190: 830e 983a 4372 f83c 2487 d13c 8710 c0bc
000001a0: a0c9 963c 31cf dfbc 265d 1f3d a954 3cbc
000001b0: 5795 86bd a2f4 8f3d 9773 a63a 8080 5e3b
000001c0: 9c35 c9bd cbb9 88ba 4b64 f63a b562 4c3c
000001d0: 543a c6bc b17f be3c 864c 96bb 5191 123d
000001e0: 7e42 00bc 6066 833d 50a5 7b3c 41a4 5abc
000001f0: 9c3e bbbb 1cc2 b03b 3a86 b0bc 7139 df3c
00000200: 27d9 4abb ca16 8cba 707b 82bc 361d 09bb
00000210: 0c8a 5bb8 dea4 0a3d b968 473d 1e23 8dbd
00000220: b432 303b 60e2 1abc faec 1abd baa2 92bc
00000230: e784 22bd 7d1b 4ebd 1478 41bc 8a50 863a
00000240: 4eb3 173d 2b62 56bd e1aa 643c 2a9c 39bb
00000250: 17c0 99bc d2fd 37bb 4538 39bc 3702 9dbc
00000260: 3d05 3a3c dc13 033d 4d5f 703d a7da 26bc
00000270: 4a56 563d b1bc babd b16b 503c b8ad cb3c
00000280: b8b3 1c3d 48fe dcbb 60f9 91bb 5467 86bc
00000290: 7697 2abc b7a3 0dbd 120a c0bc e672 0dbd
000002a0: 65ec a6bc 62e4 1bbc ae90 cebc 35e3 d83d
000002b0: ccd1 42bd 6625 5c3d 35fe aabc ae47 003c
000002c0: 26e8 11bc 4763 1b3d a3b0 4a3d e08b db3c
000002d0: 3e50 ec3c d425 f8bd b68b dcbc 166a 74bc
000002e0: e54f 63bd 9e80 fbbc 59b8 9dbd 8343 a23c
000002f0: a608 81bc 0888 bfbc 4362 13bc 069a 05bd
00000300: fb8e 6bbd 06f3 033d 0210 75bd 04da 283d
00000310: 7ae5 a1bd d8d2 303d 99df e9bc 53ed 013d
00000320: 13c0 babc c0c7 93bc 0c98 bc39 5aae dfbc
00000330: 99f2 eabb 60eb 85bc e781 e43c ce9e 053d
00000340: 7180 d8bd 55aa fb3c b4b3 d1bc 32fe 88bd
00000350: f430 8b3c b486 72bd 5e81 083d fec0 35bc
00000360: 7837 75bc 3cba 8a3d e7cb 85bd b7c2 24bd
00000370: 9d38 733c 6720 d9bc 88d9 9f3c b61d 2cbc
00000380: 3687 0e3a f457 02bd 4cd9 a03d 9d3a 4ebc
00000390: 6bdc 833d 507d bebd a5d3 4e3d c223 c23c
000003a0: 48d4 033c 08c3 2f3c 1eeb 133d 9724 113d
000003b0: 14b8 c43b 6c86 bd3b 2606 a13d 46fe a33b
000003c0: 4eaa 7d3b 7ff6 7fbc bf97 b73c 5f31 323d
000003d0: 273b dfb9 f27a 333b d242 443d c069 083d
000003e0: 356e 333b fa44 bfbb 877d ba3b 5827 a13b
000003f0: f027 af3c 6b1a 19be ca91 8abc 94d0 d2bd
0.050301354 -0.04365275 0.006272492 0.028979104 -0.014630534 -0.0039095893 -0.04705308 0.023750866
-0.023250667 -0.05209453 0.04866337 0.000160352 -0.05173064 0.085787565 -0.03284748 -0.002625316
0.0035359631 0.0029037392 -0.069858596 0.034039088 -0.037950628 0.06907548 -0.017778307 0.028996717
0.020078432 0.028881943 0.015434393 0.036185067 0.028951272 0.050810277 0.043648675 0.030456563
0.07109935 0.046833884 0.038696565 0.07387354 -0.013251194 0.030859351 0.02668915 0.019702332
0.009778012 0.05290227 0.014193697 0.023754772 0.028032113 -0.067807406 -0.040133446 -0.010780478
-0.020256678 -0.0017109398 0.00941291 0.024188453 -0.007694369 -0.010662306 0.023102593 -0.033935983
0.038988788 -0.004399244 -0.023465905 -0.00041550602 -0.024885094 0.0049417843 -0.018109405 -0.006029454
0.000982016 0.0071131 -0.031306934 -0.033845015 -0.019219762 0.017901463 -0.010888811 -0.00022599872
-0.07132358 0.04968514 -0.04127133 -0.007178922 -0.09348299 -0.004696398 0.035330165 0.028409934
-0.040891062 -0.042690955 0.0059192544 -0.0255286 -0.012948339 -0.020590197 0.013823823 0.003881072
-0.026532803 0.03476107 -0.0029251813 -0.044454526 -0.018847443 0.014434522 -0.016273031 -0.02916612
5.165796e-05 0.0031840135 -0.015007816 -0.011014238 0.0011601005 0.030327922 0.025577135 -0.02344538
0.01840669 -0.027320476 0.038907193 -0.011494794 -0.06571453 0.07029082 0.0012699243 0.0033951104
-0.09824678 -0.0010431347 0.00187982 0.012474705 -0.024197735 0.023254247 -0.004586759 0.035783116
-0.007828353 0.06416011 0.015359238 -0.013344825 -0.0057142507 0.0053942334 -0.02154838 0.02724907
-0.0030952187 -0.0010687944 -0.015928 -0.0020921952 -5.2342235e-05 0.033848636 0.048683856 -0.06891464
0.002688569 -0.009453386 -0.037823655 -0.01789986 -0.039677527 -0.050319184 -0.011808414 0.0010247391
0.037036233 -0.052339714 0.013956756 -0.002832184 -0.018768353 -0.0028074873 -0.01130492 -0.019166095
0.011353788 0.03200136 0.058684636 -0.010183967 0.052328385 -0.09118021 0.012720988 0.024863109
0.03825733 -0.00674418 -0.0044547766 -0.016406693 -0.010412088 -0.03457996 -0.023442302 -0.034533404
-0.020376394 -0.0095149 -0.025215473 0.10590211 -0.04756336 0.053746603 -0.020873168 0.00782959
-0.008905446 0.037936475 0.04948486 0.026800096 0.028846856 -0.1211659 -0.026922088 -0.014917871
-0.055496115 -0.030700978 -0.07701177 0.019807583 -0.015751194 -0.023380294 -0.008995595 -0.03261759
-0.057509404 0.032214187 -0.05982972 0.04122354 -0.07905097 0.043169826 -0.028549002 0.03172047
-0.022796666 -0.018039584 0.00035971438 -0.027304817 -0.007170033 -0.016347587 0.027893974 0.03262215
-0.10571373 0.03072087 -0.025598384 -0.06689109 0.016991116 -0.059210494 0.0333265 -0.011093376
-0.014966838 0.06773803 -0.06533032 -0.040224757 0.014845041 -0.026504708 0.019512907 -0.0105051305
0.0005437018 -0.03182216 0.07853946 -0.012587217 0.06438526 -0.09301245 0.05049481 0.023698691
0.008046217 0.010727651 0.036112897 0.035435285 0.006003389 0.0057838466 0.07862501 0.005004677
0.0038706246 -0.015622734 0.022411225 0.043504115 -0.00042577946 0.0027386514 0.047915287 0.033303976
0.002737892 -0.00583708 0.0056912336 0.00491802 0.021381348 -0.14951484 -0.01691522 -0.10293689

decoder.0.bias f4 [64]
00000000: 934c 4d3e 8a41 df3c 5713 ef3d 9ba5 9fbc
00000010: bf9e 843e ff87 053e 5f54 503e 5390 123e
00000020: 6c00 b93b f8f6 453e 3d4f 8b3e 0619 69be
00000030: e0cd 6b3c c21f 1b3e f67e 96bd 1634 163e
00000040: e4ae b0be 6802 cd3d 4b42 4f3e 44d6 1c3e
00000050: c2f3 8cbc d047 aa3d 18f0 443e b954 83bd
00000060: 0051 1b3d 5d6f 693d c90e 6a3e df19 20be
00000070: 3342 97bc 7a0c 9f3e 87aa 053e cbae 023d
00000080: c8f9 333e 56d9 42be 3725 2d3e b868 e3bd
00000090: 1e2a 0e3e fa30 453e f86f 57be c099 483e
000000a0: 9b72 6c3e 04e1 313e 3b70 4e3e 266c 663e
000000b0: ca6d 173e fa2a 6abe 7f36 513e 6e88 c63d
000000c0: df9a 5a3e 2295 923e 20d5 483e cab2 07be
000000d0: e435 3b3e 31f2 d03c 85ab 56be 8b9f a5be
000000e0: dc25 7c3e a5eb a43d 98c9 1fbe bbf7 4bbb
000000f0: 416c 1d3e fe43 6c3e 3c72 cd3c ce0b 433e
0.20048742 0.027252931 0.11673611 -0.019488147 0.25902364 0.1304016 0.20344685 0.14312868
0.0056458022 0.19332492 0.27208892 -0.22763452 0.014392346 0.15148833 -0.073484346 0.14668307
-0.3450843 0.100102246 0.20240133 0.15316111 -0.017206077 0.083144784 0.19232213 -0.06412644
0.037919044 0.05699097 0.22857203 -0.15634869 -0.018464183 0.31064206 0.13053332 0.031904977
0.17575753 -0.1902822 0.16908728 -0.11103958 0.13883254 0.19256964 -0.21038806 0.19589901
0.23090594 0.17370993 0.2016 0.22502193 0.14787975 -0.22867957 0.20430945 0.09693991
0.21348141 0.28629404 0.1961255 -0.13251796 0.18282276 0.02550611 -0.20963867 -0.32348284
0.24623817 0.08052758 -0.15604246 -0.0031123 0.15373327 0.23072812 0.025078885 0.19047472

decoder.2.weight f4 [64, 32, 3, 3]
00000000: d713 27bd 3862 e63c 7c7f 91bb 2367 1cbd
00000010: 422e 6cbc e11b 89bb ac5e cc3c 59b2 16bd
00000020: 881c 2fbd 4652 2a3c 3e2b 0bbc 0b22 b83d
00000030: ae71 10bd 9023 1d3d bdd6 9b3d 9e1a a83d
00000040: 2c65 e33d f8a1 eb3d 53b9 35be f1b1 39be
00000050: ee8b f7bd aad1 dbbd 498c 1e3d 92fe b03d
00000060: 5819 f83b 6a0b 443d 6c40 9e3d 295c c33c
00000070: 6f48 873d c3b2 c7bb 2852 9b3d 753d 69bb
00000080: 38cc d33c 53cb 003d b5db a03c 73ca b6bc
00000090: 848d 75bc e0aa d13d 1ecd 393d 1f7d a43d
000000a0: bc21 1f3e 168c 613d 1fe8 eb3d 1508 0f3e
000000b0: 738d 5d3d a1fe 98bd bf9f 4cbe d6ea 9bbd
000000c0: 56d8 47be a7e4 9bbe 1977 65be faf2 f4bd
000000d0: e391 67be ff61 40bd 0fc8 cfbd 81ed 1f3d
000000e0: f033 7e3b 7457 b3bd d374 42bc a718 d3bc
000000f0: f2ec 1f3d 3522 3fbc 9bfd a4bb 1ddb 99bd
00000100: ba95 60bd 07dd 9dba 4763 2fbc 0e63 003e
00000110: 78e4 2a3d 1f24 153d 4f67 c13d 779d 313e
00000120: c3b5 f8bd d757 25bd 8773 86bd 1375 f8bc
00000130: f062 0f3e 56f0 cf3d e3fc 71bc 8bd7 cb3c
00000140: 3d72 573d c412 ab3d 88d3 a53d 3fdf 013e
00000150: e81a d03d f845 653e a1f1 6b3e be2d 833d
00000160: bf03 e53b 8769 523d f1a3 253d 71a6 3f3d
00000170: 83ef 633d fdb7 2cba 767b d5bc bd21 cc3d
00000180: b93f 103c 77da 6c3d cf14 b33d 61eb 053d
00000190: 9643 813d 3b83 853d d85c 93bb c21e e53c
000001a0: 13af 703d 77b4 ef3d 16d6 003e 043e f73d
000001b0: 4399 65be 6cb3 9ebe dcb3 84be 0e77 ccbd
000001c0: 97c2 70be 3028 43be e6a4 0b3b d734 dcbd
000001d0: 82c0 57be 6e84 f53a 1d52 203d b20a 973b
000001e0: f8ca aa3c efaa 363e e353 033e 24b2 1f3c
000001f0: 0c90 a93d d6fe ec3c 1be8 87bd d217 24bd
00000200: f65e 96bd 81b8 68bd 09ac 84bd 9708 023d
00000210: 2861 8fbd d05d f83b dbe5 c0bc 9b95 a4be
00000220: edcc 6ebe ae68 b5bd bab6 aabe 998e 63be
00000230: 851a 8cbd 0b86 23be 37f0 12be bce1 84bd
00000240: e0ae e5bd c515 27be 647b 8bbe 907a b6be
00000250: 6611 cdbd f360 afbe be13 6abe f081 21be
00000260: a5de a8be d3c2 9ebe 9e4b 053d a12f 6cbe
00000270: 3b88 a3bd f071 2d3d e03b 4bbd 8eee f0bd
00000280: 9f01 91bd 137d a9bd fede fd3b 2d5f 903c
00000290: c5ba 453d 7f77 843d 2aae 1a3e fa1c 1c3e
000002a0: ae52 683d a5b2 223e 0494 a63d 8685 43be
000002b0: 0863 52be 80e8 5f3c 1534 b3be d7b4 3fbe
000002c0: 0864 ecbd 9f46 a4be eb7a a7bd a5a4 e4bd
000002d0: 1c3e 86be 0b1c b6be 9f53 43be d80c cdbd
000002e0: 55bb 6bbd 8267 61bd 1ec9 33be cee8 61be
000002f0: b2d3 0ebe f675 6cbd d50c 6b3d f887 3cbd
00000300: 7364 da3b e88a d53c bf5a 733d 6648 553c
00000310: 3855 8e3d ce6f f23d 3edc e5bd e167 d6bd
00000320: ac2e cebd d9da 6abd ca2d 043c 54bf 913b
00000330: ec97 233d a553 ce3d b7b6 2a3d 82dc 95bd
00000340: 6714 373d 8d8f 693d c5b1 44bc ecce 273d
00000350: 940e 553d 3ea9 7a3d c966 333e 431b c63d
00000360: 05e9 aebd ca59 aebc 07bd 71bc 169c bbbd
00000370: 5629 9c3d 8987 df3c 3dc5 91bd 1274 583d
00000380: eeb5 373d b22d cabc ec57 f8bb f369 bb3c
00000390: 3db7 1ebd b766 40bd 6584 35bd 3b22 99bc
000003a0: 0de4 fb3b 0945 cbbd f0a3 00be f0e4 98bd
000003b0: 94bf c93b 64b5 fb3c ffed 803d df5b 8d3c
000003c0: 71b8 d23c b52b e4bc 83a5 813d a0e6 f2bd
000003d0: 8057 b2bd 0a8e 343c 63fe 2cbc 7538 99bd
000003e0: e7de 84bd c620 e6bc a677 bebd 915c 273c
000003f0: f35b 13bd 82e3 18be d97a 94bd 44b5 f0bd
-0.040790405 0.028123006 -0.004440246 -0.038184296 -0.014415326 -0.0041842316 0.024947487 -0.03679118
-0.04275182 0.010395592 -0.008494196 0.08990868 -0.035264663 0.038363993 0.076093175 0.08208202
0.111032814 0.115055025 -0.17746477 -0.18134286 -0.12087236 -0.107333496 0.038708005 0.086423054
0.0075713806 0.047862448 0.07727131 0.023847656 0.066056125 -0.006094308 0.075840294 -0.003558961
0.025854215 0.031443905 0.019636014 -0.022313332 -0.014987353 0.1023767 0.04536163 0.080316775
0.15540212 0.055065237 0.11518883 0.13967927 0.054089975 -0.074704416 -0.19982813 -0.07613151
-0.1951612 -0.30447885 -0.22408713 -0.119604066 -0.22614245 -0.046968456 -0.1014558 0.03904486
0.0038788281 -0.08756915 -0.011868673 -0.025768591 0.039044328 -0.01166587 -0.005035115 -0.07512496
-0.05483029 -0.0012044021 -0.010704822 0.12537786 0.04172179 0.0364114 0.09443533 0.17345224
-0.12144043 -0.040366974 -0.06565004 -0.030329263 0.14002585 0.10153262 -0.014769766 0.024883052
0.05259918 0.08353189 0.08096987 0.12682818 0.10161382 0.22389972 0.23041393 0.06405209
0.006988972 0.05137017 0.04043955 0.04678959 0.055648338 -0.00065886957 -0.026059847 0.099673726
0.008804255 0.05782553 0.08744203 0.032695178 0.06311719 0.06519171 -0.004497152 0.027968768
0.058760714 0.11704343 0.12581667 0.120723754 -0.22421746 -0.30996263 -0.25918472 -0.099836454
-0.2351173 -0.19058299 0.0021308004 -0.10752266 -0.2106953 0.0018731484 0.03914081 0.0046094293
0.020848736 0.17838643 0.12824969 0.009747062 0.08279428 0.028930109 -0.066360675 -0.04006178
-0.07342331 -0.05681658 -0.064781256 0.031746473 -0.07000953 0.0075795427 -0.023547104 -0.3214539
-0.2332036 -0.08857857 -0.33342534 -0.22222365 -0.06840996 -0.15969102 -0.14349447 -0.06488368
-0.112149954 -0.16316898 -0.27242577 -0.35640383 -0.10013084 -0.34253654 -0.22859094 -0.15772223
-0.32982364 -0.31008014 0.032542817 -0.23065044 -0.07984968 0.042344987 -0.049617648 -0.11764251
-0.07080387 -0.08275809 0.00774753 0.017623508 0.04827382 0.064681046 0.15105501 0.15245429
0.056719474 0.1588846 0.081337005 -0.19093904 -0.2054559 0.013666272 -0.35000673 -0.18721329
-0.11542517 -0.3208513 -0.081777416 -0.11164216 -0.2621926 -0.3556827 -0.19074868 -0.100122154
-0.0575517 -0.055030353 -0.17557189 -0.22061464 -0.13947943 -0.057729684 0.057385284 -0.046028107
0.0066648065 0.026067212 0.059412714 0.013017749 0.06949848 0.11837731 -0.112236485 -0.10469032
-0.10067496 -0.057337616 0.008067558 0.004447857 0.039939806 0.10074548 0.041678157 -0.07317449
0.04469719 0.057021666 -0.012005274 0.04096882 0.052015856 0.06119656 0.17519678 0.096731685
-0.08540539 -0.02128305 -0.01475454 -0.091606304 0.07625072 0.027286308 -0.07117698 0.05284507
0.044851236 -0.024679992 -0.0075788405 0.022877669 -0.03874897 -0.046972957 -0.044315714 -0.01869308
0.007687098 -0.09925277 -0.12562537 -0.07465541 0.006156871 0.030726142 0.06295394 0.017255722
0.025722714 -0.027852872 0.06330397 -0.118603945 -0.087080956 0.011020193 -0.010558697 -0.074814714
-0.06487828 -0.0280918 -0.09300165 0.010214941 -0.03597636 -0.14930537 -0.07249994 -0.11753324

decoder.2.bias f4 [32]
00000000: 2eaa 323e af7b 013d f600 c8bc cdb9 363e
00000010: d63c 013d 0e49 793d d00d 3f3e a589 803c
00000020: e854 30bc 713c e0bb 529c ca3b 4f42 073d
00000030: 26ba 4a3e b76b fc3b 0c88 5d3b f9d9 513e
00000040: 1f49 113e 7c56 8dbd 7b0e 643c 42f1 663e
00000050: 97b6 123e 52a0 5c3c a2b4 13bd 02aa 9a3c
00000060: 6bb6 d73c eb32 363e 6eed d5bd 9edd 2c3e
00000070: 74c6 ae3d 7c6c 2d3e 888a 1c3e 9ef2 293e
0.17447731 0.031612094 -0.02441452 0.17844315 0.03155216 0.060860686 0.18657613 0.015690634
-0.010762431 -0.0068431427 0.0061831856 0.03302222 0.19797572 0.0077032703 0.0033803014 0.20493306
0.1418805 -0.06901261 0.013919468 0.2255297 0.14327465 0.013465958 -0.036060937 0.018879894
0.0263321 0.17792861 -0.10445677 0.16881415 0.08533946 0.16935915 0.1528722 0.16596457

decoder.4.weight f4 [32, 3, 3, 3]
00000000: 92e8 0a3e c57b 123e 041c e43d f2c0 313e
00000010: d750 0c3f 4e3a a23e 660f 2039 078d c93d
00000020: a112 3a3e 8998 02bd 6b89 823b 9812 7a3d
00000030: 6b88 2abc b92a 9d3e 21c1 d53d 0df2 6dbd
00000040: d210 153e 5211 c63d 98b6 87bd d1ed bb3d
00000050: 738e 9e3d 832e 523e fe87 e93e 72f6 993e
00000060: 2db6 71bd 3495 253d ff41 4d3d 5071 70be
00000070: f796 24be ff0a c6bd 56aa 35be 4676 8c3d
00000080: e2b0 8f3d f09c 92bc 564a 76bd 0036 1abe
00000090: 9841 103d 3060 84bd edae 433e 9a10 a0bd
000000a0: a21a edbb ae3c be3c 16ec 50bc 9723 74be
000000b0: 53fd 70bc fbbd 42be 188a e8bd 7b7d cebd
000000c0: 76ab e1bd 8bc7 1ebd 770a 9dbe 875a 81bd
000000d0: a380 fcbc f41a 14be e0e1 ea3c cadc 5dbe
000000e0: 31ac 0abe a09f 43be ea23 d8bd b59d 71bd
000000f0: 3873 2f3e 099c 63be e786 cf3c 01f2 783d
00000100: c1ed c9bd 8446 72bd 6b56 20be 1c83 04be
00000110: 539a 81be 4900 50be d7ff acbe 3521 69be
00000120: 44b9 203e 7630 0e3e e1af ec3d bd1f 1abd
00000130: 851f 053e f60b 203d 44b2 2a3d 8a05 eb3d
00000140: 5504 0d3d 7f8b fa3d 0515 c53e 22b8 0a3e
00000150: 6a06 843e 76b5 0c3f 79cb 5d3e fbd8 163c
00000160: 6285 a23e c0d8 203d 6d81 9ebc bfee 233e
00000170: 680e f93d 3876 7c3e ecff a53e e6cb 1d3e
00000180: 798b 81bd cc09 703e 9d55 0cbe 88f8 933c
00000190: 6a9d a23e ce4d bd3d 397a 103d eddc c33e
000001a0: b077 41bc 0c8f 593d 1fda 6f3e 5ddc 0b3e
000001b0: c26f 3c3e 58fd 10be 53ef c63d 1b5f a03b
000001c0: 3aa8 053e 7bad 083e 7c13 7d3c bfa9 083e
000001d0: 25e8 c9bd 540e 00be ddf2 cfbd 4090 c8bd
000001e0: c99e 3abd 9f1b 8cbe 84ba 233e bf25 a6bc
000001f0: 6161 0d3d 527c 6ebd 6190 0d3e 540f d2bd
00000200: ae6b 20be 483d 9fbd 3398 70be c87d b93c
00000210: 1dae c7bc 9b8c 86be 29f7 95bb a264 95ba
00000220: e647 a2bd e90a b3bd c788 32be 95e9 41be
00000230: f3fd eabd 62a2 dcbd e549 05be f848 74bd
00000240: 6b8c 72bd 9bc7 0f3e 8429 ae3d 9dbb bdbc
00000250: f382 383e 6b9f f83d 9a79 6a3c 7131 1c3c
00000260: 2699 813c adab fb3a 2079 593e f263 1d3e
00000270: 2437 433e 2c6a 0f3f d370 da3e f74c 283e
00000280: d2e8 b63e 0db5 143e 15c1 923d d5f5 ae3d
00000290: 6ab8 273e e699 3a3e be30 613e 99dc 963e
000002a0: fd95 453e a0c9 3c3e 82f2 423e 8b39 523e
000002b0: f550 613e 2dbb 773e 74c2 6d3e 45f2 f53e
000002c0: 3e08 a63e 7899 6d3e 0af6 a33e 42af 8c3e
000002d0: d23f 8f3d 1ca6 b53d 9e21 5fbc 3ac0 1f3e
000002e0: 9e21 38bd b06e e3bc 582f 1fbd 1baa bbbd
000002f0: 78ea 23bd f8cb 44bd 6359 d8bc e788 62bd
00000300: db9d d7bc f7f6 2ebe 63e1 c7bd e2ae 5dbe
00000310: 4057 d8bd 3aaa 28bd aed0 a3bd cdf1 8c3c
00000320: 35f2 97bd 06a8 813d d3a7 f9bb 0880 28be
00000330: 77b6 40be 9d02 febc 28fb 333d eabd 25be
00000340: ef24 68be 62a4 4ebd bb05 78be 3eb0 c2be
00000350: e433 63be 1b86 8bbe b178 ddbe b469 a4be
00000360: b848 eabc 61b4 be3d 1e51 973c b975 d33c
00000370: 6fcc 8abe 9c35 0dbe 1e91 1ebd 2468 f63d
00000380: 97ab 26be 9de3 88bd 8b6d 3fbe 07d0 3f3b
00000390: 76bd 39be b9a0 c4be 11d7 d3bd 450f 083e
000003a0: 8a86 993d a64a 3dbe 8312 153d 251c 4e3d
000003b0: 0928 21bd afb1 d43d f8e5 a73d 6f9e 10be
000003c0: d9d9 7b3d 610c 86bd 6a69 92bc e7a7 1c3e
000003d0: 9fc2 c23d 45b5 8a3d ecab ac3d 6efc 27be
000003e0: afcd a83d 4ce8 f13d 9109 32be 40ab 18be
000003f0: 43e6 87bd 3f88 83bd 3652 ce3c 989a 2ebe
0.13565281 0.14305027 0.11138156 0.17358759 0.5481085 0.31685108 0.00015264525 0.09841352
0.18171169 -0.03188375 0.0039836667 0.06105289 -0.010408501 0.30696657 0.10437227 -0.058092166
0.14557198 0.09671272 -0.06626624 0.09176219 0.07742014 0.20525555 0.45611566 0.30070835
-0.059011627 0.040425494 0.050111767 -0.23480725 -0.16073214 -0.09670066 -0.17740759 0.06858496
0.070161596 -0.0178971 -0.060129486 -0.15059662 0.035218805 -0.06463659 0.19109698 -0.078156665
-0.007235841 0.023222294 -0.0127516 -0.23841701 -0.014708835 -0.19017784 -0.11354464 -0.10082527
-0.11019032 -0.038764518 -0.30672047 -0.06316095 -0.030823058 -0.14463407 0.028672159 -0.21666256
-0.13542248 -0.19103861 -0.10553725 -0.05898829 0.17133796 -0.22227491 0.025332881 0.060777668
-0.09859801 -0.05914928 -0.15657966 -0.1294064 -0.25313053 -0.20312609 -0.3378894 -0.22766574
0.15695673 0.13885674 0.11556984 -0.037627924 0.13000305 0.039073907 0.041673914 0.11475666
0.03442796 0.12233638 0.384926 0.13546804 0.25786144 0.5496439 0.2165965 0.009207006
0.31742388 0.03926921 -0.019348824 0.16009043 0.12160951 0.24654472 0.32421815 0.15409812
-0.063254304 0.23441237 -0.13704534 0.018062845 0.31760722 0.09243356 0.03527281 0.3825449
-0.011808321 0.053114936 0.2342305 0.1365828 0.18402007 -0.14159143 0.09713616 0.00489415
0.13052455 0.13347428 0.01544654 0.13346003 -0.09858731 -0.12505466 -0.10153744 -0.097931385
-0.045561586 -0.27364823 0.15989119 -0.02028167 0.034516696 -0.05822403 0.13824607 -0.1025683
-0.15666077 -0.0777536 -0.2349556 0.022642985 -0.024375016 -0.26279148 -0.004576583 -0.0011397789
-0.0792387 -0.08742315 -0.17434989 -0.1893676 -0.11474218 -0.107731596 -0.1301647 -0.0596399
-0.059215944 0.14040987 0.08504012 -0.02316075 0.18018703 0.121397816 0.014311219 0.009533272
0.015820097 0.0019200944 0.21237612 0.15370157 0.19064003 0.5602138 0.42664203 0.1643561
0.35724503 0.1452219 0.07165734 0.085429825 0.16378942 0.1822277 0.2199125 0.29465178
0.19295497 0.18436289 0.19037822 0.20529763 0.22003539 0.24192496 0.23218709 0.480364
0.32428163 0.23203075 0.3202365 0.2747746 0.06994595 0.088695735 -0.013618855 0.15600672
-0.044953935 -0.02776274 -0.03886351 -0.091633044 -0.04001853 -0.048046082 -0.02640981 -0.05530634
-0.026320389 -0.17086397 -0.09759786 -0.21648744 -0.105635166 -0.041177966 -0.07998787 0.017205143
-0.07419244 0.06330876 -0.007618883 -0.1645509 -0.18819605 -0.031007105 0.043940693 -0.16185728
-0.22670339 -0.050449736 -0.24220936 -0.38025087 -0.22187763 -0.27250752 -0.43256143 -0.32111895
-0.028599128 0.09311748 0.018471297 0.02581297 -0.27109095 -0.13789982 -0.038712613 0.12031582
-0.16276394 -0.06684039 -0.18694131 0.002926828 -0.1813868 -0.38403872 -0.10343755 0.13287075
0.074963644 -0.18485507 0.036394607 0.05031981 -0.03934482 0.10385453 0.0819816 -0.14122938
0.061487053 -0.0654533 -0.017872531 0.15298425 0.09509777 0.06772856 0.08431229 -0.16404888
0.08242356 0.11811885 -0.17386462 -0.14909077 -0.06635716 -0.06422471 0.025185686 -0.1705116

decoder.4.bias f4 [3]
00000000: ff0c e23d 0077 6e3e c04f f4bd
0.11037635 0.23287582 -0.119292736
